…
2020-12-31 21:20:11.138983: I tensorflow/stream_executor/cuda/cuda_blas.cc:1838] TensorFloat-32 will be used for the matrix multiplication. This will only be logged once.
Num GPUs Available:  1
25000
Found 25000 files belonging to 2 classes.
Using 20000 files for training.
Found 25000 files belonging to 2 classes.
Using 5000 files for validation.
['cat', 'dog']
(10, 250, 250, 3)
(10, 1)
0.014391566 0.86092466
Model: "sequential_1"
_________________________________________________________________
Layer (type)                 Output Shape              Param #   
=================================================================
sequential (Sequential)      (None, 250, 250, 3)       0         
_________________________________________________________________
rescaling_1 (Rescaling)      (None, 250, 250, 3)       0         
_________________________________________________________________
conv2d (Conv2D)              (None, 250, 250, 16)      448       
_________________________________________________________________
max_pooling2d (MaxPooling2D) (None, 125, 125, 16)      0         
_________________________________________________________________
conv2d_1 (Conv2D)            (None, 125, 125, 32)      4640      
_________________________________________________________________
max_pooling2d_1 (MaxPooling2 (None, 62, 62, 32)        0         
_________________________________________________________________
conv2d_2 (Conv2D)            (None, 62, 62, 64)        18496     
_________________________________________________________________
max_pooling2d_2 (MaxPooling2 (None, 31, 31, 64)        0         
_________________________________________________________________
dropout (Dropout)            (None, 31, 31, 64)        0         
_________________________________________________________________
flatten (Flatten)            (None, 61504)             0         
_________________________________________________________________
dense (Dense)                (None, 128)               7872640   
_________________________________________________________________
dense_1 (Dense)              (None, 2)                 258       
=================================================================
Total params: 7,896,482
Trainable params: 7,896,482
Non-trainable params: 0
_________________________________________________________________
Epoch 1/15
   1/2000 [..............................] - ETA: 6:16:53 - loss: 0.7216 - accuracy: 0.6000
…
